…
    Starting now: 2025-05-07 10:04:21.299295
[*] Loaded dataset 'associative-recall' from 'synthetic':
  Data(x=[13643188, 32], edge_index=[2, 13617188], y=[26000], mask=[13643188], laplacian_eigenvector_plain=[13643188, 10], laplacian_eigenvalue_plain=[26000, 10], laplacian_eigenvalue_plain_mask=[26000, 10], laplacian_eigenvector_plain_posenc=[13643188, 10], laplacian_config=[26000])
  undirected: False
  num graphs: 26000
  avg num_nodes/graph: 524
  num node features: 32
  num edge features: 0
  num classes: 15
GraphGymModule(
  (model): S2GNN(
    (encoder): FeatureEncoder(
      (node_encoder): LinearNodeEncoder(
        (encoder): Linear(in_features=32, out_features=224, bias=True)
      )
    )
    (gnn_layers): Sequential(
      (0): FeatureBatchGNNLayer(
        (conv): FeatureBatchSpatialDirectionalGraphConv(
          (lin_forward): Linear(in_features=224, out_features=112, bias=False)
          (lin_backward): Linear(in_features=224, out_features=112, bias=False)
        )
        (dropout): Dropout(p=0.05, inplace=False)
        (activation): GELU(approximate='none')
      )
      (1): FeatureBatchGNNLayer(
        (conv): FeatureBatchSpatialDirectionalGraphConv(
          (lin_forward): Linear(in_features=224, out_features=112, bias=False)
          (lin_backward): Linear(in_features=224, out_features=112, bias=False)
        )
        (dropout): Dropout(p=0.05, inplace=False)
        (activation): GELU(approximate='none')
      )
      (2): FeatureBatchGNNLayer(
        (conv): FeatureBatchSpatialDirectionalGraphConv(
          (lin_forward): Linear(in_features=224, out_features=112, bias=False)
          (lin_backward): Linear(in_features=224, out_features=112, bias=False)
        )
        (dropout): Dropout(p=0.05, inplace=False)
        (activation): GELU(approximate='none')
      )
      (3): FeatureBatchGNNLayer(
        (conv): FeatureBatchSpatialDirectionalGraphConv(
          (lin_forward): Linear(in_features=224, out_features=112, bias=False)
          (lin_backward): Linear(in_features=224, out_features=112, bias=False)
        )
        (dropout): Dropout(p=0.05, inplace=False)
        (activation): GELU(approximate='none')
      )
      (4): FeatureBatchGNNLayer(
        (conv): FeatureBatchSpatialDirectionalGraphConv(
          (lin_forward): Linear(in_features=224, out_features=112, bias=False)
          (lin_backward): Linear(in_features=224, out_features=112, bias=False)
        )
        (dropout): Dropout(p=0.05, inplace=False)
        (activation): GELU(approximate='none')
      )
      (5): FeatureBatchGNNLayer(
        (conv): FeatureBatchSpatialDirectionalGraphConv(
          (lin_forward): Linear(in_features=224, out_features=112, bias=False)
          (lin_backward): Linear(in_features=224, out_features=112, bias=False)
        )
        (dropout): Dropout(p=0.05, inplace=False)
        (activation): GELU(approximate='none')
      )
      (6): FeatureBatchGNNLayer(
        (conv): FeatureBatchSpatialDirectionalGraphConv(
          (lin_forward): Linear(in_features=224, out_features=112, bias=False)
          (lin_backward): Linear(in_features=224, out_features=112, bias=False)
        )
        (dropout): Dropout(p=0.05, inplace=False)
        (activation): GELU(approximate='none')
      )
      (7): FeatureBatchGNNLayer(
        (conv): FeatureBatchSpatialDirectionalGraphConv(
          (lin_forward): Linear(in_features=224, out_features=112, bias=False)
          (lin_backward): Linear(in_features=224, out_features=112, bias=False)
        )
        (dropout): Dropout(p=0.05, inplace=False)
        (activation): GELU(approximate='none')
      )
      (8): FeatureBatchGNNLayer(
        (conv): FeatureBatchSpatialDirectionalGraphConv(
          (lin_forward): Linear(in_features=224, out_features=112, bias=False)
          (lin_backward): Linear(in_features=224, out_features=112, bias=False)
        )
        (dropout): Dropout(p=0.05, inplace=False)
        (activation): GELU(approximate='none')
      )
      (9): FeatureBatchGNNLayer(
        (conv): FeatureBatchSpatialDirectionalGraphConv(
          (lin_forward): Linear(in_features=224, out_features=112, bias=False)
          (lin_backward): Linear(in_features=224, out_features=112, bias=False)
        )
        (dropout): Dropout(p=0.05, inplace=False)
        (activation): GELU(approximate='none')
      )
    )
    (post_mp): MaskedReadoutGraphHead(
      (mlp): Sequential(
        (0): Dropout(p=0.05, inplace=False)
        (1): Linear(in_features=224, out_features=15, bias=True)
      )
    )
  )
)
accelerator: cuda
benchmark: False
bn:
  eps: 1e-05
  mom: 0.1
cfg_dest: config.yaml
custom_metrics: []
dataset:
  arxiv_year:
    num_split: 0
    with_ogbn_arxiv_labels: False
  associative_recall:
    n_graphs: (25000, 500, 500)
    num_keys: 1
    num_vocab: 30
    precalc_eigdec_k: 10
    test_n_nodes: (1000, 1200)
    train_n_nodes: (20, 1000)
…
