…
[*] Loaded dataset 'peptides-structural' from 'OGB':
  Data(edge_index=[2, 4773974], edge_attr=[4773974, 3], x=[2344859, 9], y=[15535, 11])
  undirected: True
  num graphs: 15535
  avg num_nodes/graph: 150
  num node features: 9
  num edge features: 3
  num classes: 11
Precomputing Positional Encoding statistics: ['MagLapPE'] for all graphs...
  ...estimated to be undirected: True
Done! Took 00:02:01.86
GraphGymModule(
  (model): S2GNN(
    (encoder): FeatureEncoder(
      (node_encoder): Concat2NodeEncoder(
        (encoder1): AtomEncoder(
          (atom_embedding_list): ModuleList(
            (0): Embedding(119, 244)
            (1): Embedding(5, 244)
            (2-3): 2 x Embedding(12, 244)
            (4): Embedding(10, 244)
            (5-6): 2 x Embedding(6, 244)
            (7-8): 2 x Embedding(2, 244)
          )
        )
        (encoder2): MagLapPENodeEncoder(
          (posenc_lin): Linear(in_features=150, out_features=16, bias=True)
        )
      )
      (edge_encoder): BondEncoder(
        (bond_embedding_list): ModuleList(
          (0): Embedding(5, 260)
          (1): Embedding(6, 260)
          (2): Embedding(2, 260)
        )
      )
    )
    (gnn_layers): Sequential(
      (0): GCNConvGNNLayer(
        (conv): GCNConv(260, 260)
        (dropout): Dropout(p=0.25, inplace=False)
        (activation): GELU(approximate='none')
      )
      (1): GCNConvGNNLayer(
        (conv): GCNConv(260, 260)
        (dropout): Dropout(p=0.25, inplace=False)
        (activation): GELU(approximate='none')
      )
      (2): FeatureBatchSpectralLayer(
        (filter): FilterEncoder(
          (filter): BasisFunctionsLayer(
            (distance_expansion): GaussianSmearing()
            (linear): Sequential(
              (0): Linear(in_features=60, out_features=19, bias=False)
              (1): Linear(in_features=19, out_features=128, bias=True)
            )
          )
        )
        (feature_transform): SpecFeatureTransformLayer(
          (layer_real): GLULayer(
            (lin0): Linear(in_features=260, out_features=13, bias=False)
            (lin1): Linear(in_features=13, out_features=260, bias=True)
          )
        )
        (dropout): Dropout(p=0.0, inplace=False)
        (window): Window()
      )
      (3): GCNConvGNNLayer(
        (conv): GCNConv(260, 260)
        (dropout): Dropout(p=0.25, inplace=False)
        (activation): GELU(approximate='none')
      )
    )
    (post_mp): MLPGraphHead(
      (mlp): Sequential(
        (0): Dropout(p=0.25, inplace=False)
        (1): Linear(in_features=260, out_features=260, bias=True)
        (2): GELU(approximate='none')
        (3): Dropout(p=0.25, inplace=False)
        (4): Linear(in_features=260, out_features=260, bias=True)
        (5): GELU(approximate='none')
        (6): Dropout(p=0.25, inplace=False)
        (7): Linear(in_features=260, out_features=11, bias=True)
      )
    )
  )
)
accelerator: cuda
benchmark: False
bn:
  eps: 1e-05
  mom: 0.1
cfg_dest: config.yaml
custom_metrics: []
dataset:
  arxiv_year:
    num_split: 0
    with_ogbn_arxiv_labels: False
  associative_recall:
    n_graphs: (25000, 500, 500)
    num_keys: 1
    num_vocab: 30
    precalc_eigdec_k: 10
    test_n_nodes: (1000, 1200)
    train_n_nodes: (20, 1000)
…
