…
  Data(x=[13643188, 32], edge_index=[2, 13617188], y=[26000], mask=[13643188], laplacian_eigenvector_plain=[13643188, 10], laplacian_eigenvalue_plain=[26000, 10], laplacian_eigenvalue_plain_mask=[26000, 10], laplacian_eigenvector_plain_posenc=[13643188, 10], laplacian_config=[26000])
  undirected: False
  num graphs: 26000
  avg num_nodes/graph: 524
  num node features: 32
  num edge features: 0
  num classes: 15
Precomputing Positional Encoding statistics: ['MagLapPE'] for all graphs...
  ...estimated to be undirected: False
Done! Took 00:00:13.96
GraphGymModule(
  (model): S2GNN(
    (encoder): FeatureEncoder(
      (node_encoder): Concat2NodeEncoder(
        (encoder1): LinearNodeEncoder(
          (encoder): Linear(in_features=32, out_features=216, bias=True)
        )
        (encoder2): MagLapPENodeEncoder(
          (posenc_lin): Linear(in_features=20, out_features=8, bias=True)
        )
      )
    )
    (gnn_layers): Sequential(
      (0): FeatureBatchGNNLayer(
        (conv): FeatureBatchSpatialDirectionalGraphConv(
          (lin_forward): Linear(in_features=224, out_features=112, bias=False)
          (lin_backward): Linear(in_features=224, out_features=112, bias=False)
        )
        (dropout): Dropout(p=0.1, inplace=False)
        (activation): GELU(approximate='none')
      )
      (1): FeatureBatchSpectralLayer(
        (filter): FilterEncoder(
          (filter): BasisFunctionsLayer(
            (distance_expansion): GaussianSmearing()
            (linear): Sequential(
              (0): Linear(in_features=30, out_features=44, bias=False)
              (1): Linear(in_features=44, out_features=224, bias=True)
            )
          )
        )
        (feature_transform): SpecFeatureTransformLayer(
          (layer_real): GLULayer(
            (lin1): Linear(in_features=224, out_features=224, bias=True)
          )
          (layer_imag): GLULayer(
            (lin1): Linear(in_features=224, out_features=224, bias=True)
          )
        )
        (dropout): Dropout(p=0.1, inplace=False)
        (silu_stack): Sequential(
          (0): Sequential(
            (0): MaybeComplexLinear(in_features=224, out_features=224, bias=False)
            (1): SiLUMixAndBias(
              (lin): Linear(in_features=224, out_features=224, bias=True)
            )
          )
        )
        (window): Window()
      )
      (2): FeatureBatchGNNLayer(
        (conv): FeatureBatchSpatialDirectionalGraphConv(
          (lin_forward): Linear(in_features=224, out_features=112, bias=False)
          (lin_backward): Linear(in_features=224, out_features=112, bias=False)
        )
        (dropout): Dropout(p=0.1, inplace=False)
        (activation): GELU(approximate='none')
      )
      (3): FeatureBatchSpectralLayer(
        (filter): FilterEncoder(
          (filter): BasisFunctionsLayer(
            (distance_expansion): GaussianSmearing()
            (linear): Sequential(
              (0): Linear(in_features=30, out_features=44, bias=False)
              (1): Linear(in_features=44, out_features=224, bias=True)
            )
          )
        )
        (feature_transform): SpecFeatureTransformLayer(
          (layer_real): GLULayer(
            (lin1): Linear(in_features=224, out_features=224, bias=True)
          )
          (layer_imag): GLULayer(
            (lin1): Linear(in_features=224, out_features=224, bias=True)
          )
        )
        (dropout): Dropout(p=0.1, inplace=False)
        (silu_stack): Sequential(
          (0): Sequential(
            (0): MaybeComplexLinear(in_features=224, out_features=224, bias=False)
            (1): SiLUMixAndBias(
              (lin): Linear(in_features=224, out_features=224, bias=True)
            )
          )
        )
        (window): Window()
      )
      (4): FeatureBatchGNNLayer(
        (conv): FeatureBatchSpatialDirectionalGraphConv(
          (lin_forward): Linear(in_features=224, out_features=112, bias=False)
          (lin_backward): Linear(in_features=224, out_features=112, bias=False)
        )
        (dropout): Dropout(p=0.1, inplace=False)
        (activation): GELU(approximate='none')
      )
      (5): FeatureBatchSpectralLayer(
        (filter): FilterEncoder(
          (filter): BasisFunctionsLayer(
            (distance_expansion): GaussianSmearing()
            (linear): Sequential(
              (0): Linear(in_features=30, out_features=44, bias=False)
              (1): Linear(in_features=44, out_features=224, bias=True)
            )
          )
        )
        (feature_transform): SpecFeatureTransformLayer(
          (layer_real): GLULayer(
            (lin1): Linear(in_features=224, out_features=224, bias=True)
          )
          (layer_imag): GLULayer(
            (lin1): Linear(in_features=224, out_features=224, bias=True)
          )
        )
        (dropout): Dropout(p=0.1, inplace=False)
        (silu_stack): Sequential(
          (0): Sequential(
            (0): MaybeComplexLinear(in_features=224, out_features=224, bias=False)
            (1): SiLUMixAndBias(
              (lin): Linear(in_features=224, out_features=224, bias=True)
            )
          )
        )
        (window): Window()
      )
    )
    (post_mp): MaskedReadoutGraphHead(
      (mlp): Sequential(
        (0): Dropout(p=0.1, inplace=False)
        (1): Linear(in_features=224, out_features=224, bias=True)
        (2): GELU(approximate='none')
        (3): Dropout(p=0.1, inplace=False)
        (4): Linear(in_features=224, out_features=15, bias=True)
      )
    )
  )
)
accelerator: cuda
benchmark: False
bn:
  eps: 1e-05
  mom: 0.1
cfg_dest: config.yaml
custom_metrics: []
dataset:
  arxiv_year:
    num_split: 0
    with_ogbn_arxiv_labels: False
  associative_recall:
    n_graphs: (25000, 500, 500)
    num_keys: 1
    num_vocab: 30
    precalc_eigdec_k: 10
    test_n_nodes: (1000, 1200)
    train_n_nodes: (20, 1000)
…
