…
_name=laplacian_eigenvector_plain, normalization=sym, which=SA, q=0.0001, drop_trailing_repeated=False, scc=False, positional_encoding=False, sparse=True)', train_mask=[169343], val_mask=[169343], test_mask=[169343])
  undirected: False
  num graphs: 1
  avg num_nodes/graph: 169343
  num node features: 128
  num edge features: 0
  num tasks: 1
  num classes: 40
GraphGymModule(
  (model): S2GNN(
    (encoder): FeatureEncoder(
      (node_encoder): OGBNArxivLinearNodeEncoder(
        (ogbn_arxiv_encoder): OGBNArxivNodeEncoder()
        (linear_node_encoder): LinearNodeEncoder(
          (encoder): Linear(in_features=128, out_features=256, bias=True)
        )
      )
    )
    (gnn_layers): Sequential(
      (0): FeatureBatchGNNLayer(
        (conv): FeatureBatchSpatialDirectionalGraphConv(
          (lin_forward): Linear(in_features=256, out_features=256, bias=True)
          (lin_backward): Linear(in_features=256, out_features=256, bias=True)
        )
        (dropout): Dropout(p=0.5, inplace=False)
        (activation): ReLU()
      )
      (1): FeatureBatchGNNLayer(
        (conv): FeatureBatchSpatialDirectionalGraphConv(
          (lin_forward): Linear(in_features=256, out_features=256, bias=True)
          (lin_backward): Linear(in_features=256, out_features=256, bias=True)
        )
        (dropout): Dropout(p=0.5, inplace=False)
        (activation): ReLU()
      )
      (2): FeatureBatchGNNLayer(
        (conv): FeatureBatchSpatialDirectionalGraphConv(
          (lin_forward): Linear(in_features=256, out_features=256, bias=True)
          (lin_backward): Linear(in_features=256, out_features=256, bias=True)
        )
        (dropout): Dropout(p=0.5, inplace=False)
        (activation): ReLU()
      )
      (3): FeatureBatchGNNLayer(
        (conv): FeatureBatchSpatialDirectionalGraphConv(
          (lin_forward): Linear(in_features=256, out_features=256, bias=True)
          (lin_backward): Linear(in_features=256, out_features=256, bias=True)
        )
        (dropout): Dropout(p=0.5, inplace=False)
        (activation): ReLU()
      )
    )
    (post_mp): GNNTransductiveNodeHead(
      (mlp): Sequential(
        (0): Dropout(p=0.5, inplace=False)
        (1): Linear(in_features=256, out_features=5, bias=True)
      )
    )
  )
)
accelerator: cuda
benchmark: False
bn:
  eps: 1e-05
  mom: 0.1
cfg_dest: config.yaml
custom_metrics: []
dataset:
  arxiv_year:
    num_split: 0
    with_ogbn_arxiv_labels: False
  associative_recall:
    n_graphs: (25000, 500, 500)
    num_keys: 1
    num_vocab: 30
    precalc_eigdec_k: 10
    test_n_nodes: (1000, 1200)
    train_n_nodes: (20, 1000)
…
