…
    Starting now: 2025-05-14 20:53:34.459173
[*] Loaded dataset 'source-dist' from 'synthetic':
  Data(x=[41174547, 1], edge_index=[2, 45200812], y=[41174547], num_nodes=41174547)
  undirected: False
  num graphs: 55000
  avg num_nodes/graph: 748
  num node features: 1
  num edge features: 0
  num classes: 105
Precomputing Positional Encoding statistics: ['MagLapPE'] for all graphs...
  ...estimated to be undirected: False
Done! Took 01:07:14.68
GraphGymModule(
  (model): S2GNN(
    (encoder): FeatureEncoder(
      (node_encoder): Concat2NodeEncoder(
        (encoder1): LinearNodeEncoder(
          (encoder): Linear(in_features=1, out_features=236, bias=True)
        )
        (encoder2): MagLapPENodeEncoder(
          (posenc_lin): Linear(in_features=100, out_features=236, bias=True)
        )
      )
    )
    (gnn_layers): Sequential(
      (0): FeatureBatchGNNLayer(
        (conv): FeatureBatchSpatialDirectionalGraphConv(
          (lin_forward): Linear(in_features=236, out_features=118, bias=False)
          (lin_backward): Linear(in_features=236, out_features=118, bias=False)
        )
        (dropout): Dropout(p=0.05, inplace=False)
        (activation): GELU(approximate='none')
      )
      (1): FeatureBatchGNNLayer(
        (conv): FeatureBatchSpatialDirectionalGraphConv(
          (lin_forward): Linear(in_features=236, out_features=118, bias=False)
          (lin_backward): Linear(in_features=236, out_features=118, bias=False)
        )
        (dropout): Dropout(p=0.05, inplace=False)
        (activation): GELU(approximate='none')
      )
      (2): FeatureBatchGNNLayer(
        (conv): FeatureBatchSpatialDirectionalGraphConv(
          (lin_forward): Linear(in_features=236, out_features=118, bias=False)
          (lin_backward): Linear(in_features=236, out_features=118, bias=False)
        )
        (dropout): Dropout(p=0.05, inplace=False)
        (activation): GELU(approximate='none')
      )
      (3): FeatureBatchGNNLayer(
        (conv): FeatureBatchSpatialDirectionalGraphConv(
          (lin_forward): Linear(in_features=236, out_features=118, bias=False)
          (lin_backward): Linear(in_features=236, out_features=118, bias=False)
        )
        (dropout): Dropout(p=0.05, inplace=False)
        (activation): GELU(approximate='none')
      )
      (4): FeatureBatchGNNLayer(
        (conv): FeatureBatchSpatialDirectionalGraphConv(
          (lin_forward): Linear(in_features=236, out_features=118, bias=False)
          (lin_backward): Linear(in_features=236, out_features=118, bias=False)
        )
        (dropout): Dropout(p=0.05, inplace=False)
        (activation): GELU(approximate='none')
      )
    )
    (post_mp): GNNInductiveNodeHead(
      (mlp): Sequential(
        (0): Dropout(p=0.05, inplace=False)
        (1): Linear(in_features=236, out_features=236, bias=True)
        (2): GELU(approximate='none')
        (3): Dropout(p=0.05, inplace=False)
        (4): Linear(in_features=236, out_features=236, bias=True)
        (5): GELU(approximate='none')
        (6): Dropout(p=0.05, inplace=False)
        (7): Linear(in_features=236, out_features=1, bias=True)
      )
    )
  )
)
accelerator: cuda
benchmark: False
bn:
  eps: 1e-05
  mom: 0.1
cfg_dest: config.yaml
custom_metrics: []
dataset:
  arxiv_year:
    num_split: 0
    with_ogbn_arxiv_labels: False
  associative_recall:
    n_graphs: (25000, 500, 500)
    num_keys: 1
    num_vocab: 30
    precalc_eigdec_k: 10
    test_n_nodes: (1000, 1200)
    train_n_nodes: (20, 1000)
…
